…
  "num_workers": 8,
  "use_gpu": true,
  "tensorboard": false,
  "save_dir": "saved_folder_train",
  "debug": false,
  "scale_loss": 1.0,
  "resume": false,
  "start_epoch": 0,
  "scheduler": "cosine",
  "T_0": 10,
  "T_mult": 2,
  "eta_min": 1e-06,
  "milestones": [
    20,
    50,
    80,
    100
  ],
  "gamma": 0.5,
  "seq_length": 3
}-------------------------------------------------------------------------------
           Layer (type)            Input Shape         Param #     Tr. Param #
===============================================================================
               Conv2d-1      [32, 1, 224, 224]           1,600           1,600
          BatchNorm2d-2     [32, 32, 112, 112]              64              64
                 ReLU-3     [32, 32, 112, 112]               0               0
            MaxPool2d-4     [32, 32, 112, 112]               0               0
               Conv2d-5       [32, 32, 56, 56]          51,264          51,264
          BatchNorm2d-6       [32, 64, 28, 28]             128             128
                 ReLU-7       [32, 64, 28, 28]               0               0
            MaxPool2d-8       [32, 64, 28, 28]               0               0
               Conv2d-9       [32, 64, 14, 14]          73,856          73,856
         BatchNorm2d-10        [32, 128, 7, 7]             256             256
                ReLU-11        [32, 128, 7, 7]               0               0
   AdaptiveMaxPool2d-12        [32, 128, 7, 7]               0               0
              Linear-13              [32, 128]           8,256           8,256
                ReLU-14               [32, 64]               0               0
             Dropout-15               [32, 64]               0               0
              Linear-16               [32, 64]           4,160           4,160
           LayerNorm-17            [32, 2, 64]             128             128
                 GRU-18            [32, 2, 64]          24,960          24,960
              Linear-19            [32, 2, 64]           4,160           4,160
                ReLU-20            [32, 2, 64]               0               0
             Dropout-21            [32, 2, 64]               0               0
              Linear-22            [32, 2, 64]           4,160           4,160
===============================================================================
Total params: 172,992
Trainable params: 172,992
Non-trainable params: 0
-------------------------------------------------------------------------------


======================================== Hierarchical Summary ========================================

StudentModalityNet(
  (cnn_layers): Sequential(
…
